model/model2.pt (torch, 9857 bytes, 12 tensors)

Net1.fc_list.0.weight f4 [32, 11]
0	0x3e2e70e4	0.17035252
1	0x3dd5ae2e	0.10433613
2	0x3e7d7b79	0.24754132
3	0xbe13d2d8	-0.144359
4	0x3e7eba72	0.2487581
5	0x3e5d41b4	0.21607095
6	0x3e9453f0	0.2897029
7	0x3e1aa07d	0.15100284
8	0x3e9d9c82	0.30783468
9	0x3e97c415	0.29641786
10	0xbd4898c7	-0.048973825
11	0x3e0f4f6d	0.13995142
12	0xbe3b34b5	-0.18281825
13	0xbd0a15f0	-0.033712327
14	0x3e0ec314	0.13941604
15	0x3e15f90d	0.14645787
16	0x3da1144a	0.07865198
17	0x3ba11386	0.0049156575
18	0xbe334bc0	-0.17509365
19	0x3e8abaa3	0.27095518
20	0xbe8bdb1a	-0.273156
21	0xbdb0df24	-0.08636311
22	0x3ded034f	0.11572897
23	0xbdc6df77	-0.09710591
24	0x3e3c4b31	0.18388058
25	0xbd92d880	-0.071702
26	0xbd106cbf	-0.03525996
27	0xbe3efee3	-0.18651919
28	0xbcd5ddf1	-0.026106806
29	0x3e7c6364	0.2464729
30	0xbe90cd49	-0.2828162
31	0x3e8c6302	0.27419287
32	0xbe86e1ff	-0.26344296
33	0x3c62af23	0.013835701
34	0x3e0f3939	0.13986672
35	0x3cbc46b3	0.02298293
36	0xbe4ce929	-0.20010819
37	0xbd4f0645	-0.05054309
38	0x3e570d9e	0.21001288
39	0xbd75c7a7	-0.060004856
40	0xbb9c83d8	-0.004776459
41	0xbd8f9b5b	-0.070120536
42	0xbe904b1b	-0.281823
43	0xbd333eb6	-0.043760978
44	0x3e56b6c2	0.20968154
45	0x3b895ecc	0.004192209
46	0x3e342008	0.17590344
47	0x3e91ac91	0.2845197
48	0xbc009478	-0.007847898
49	0x3e566553	0.2093709
50	0x3dca4b7b	0.09877678
51	0x3e83186f	0.2560458
52	0x3dfce6f9	0.12348742
53	0xbe614eb7	-0.22002684
54	0x3e9e3a8e	0.3090405
55	0xbd822678	-0.063549936
56	0xbdad2ec5	-0.08456186
57	0x3daa21cb	0.08307227
58	0xbd9a1842	-0.07524158
59	0xbc0be58f	-0.008538618
60	0x3d5d07ce	0.05396252
61	0x3ed3546c	0.41275346
62	0x3e0d1d1a	0.13780633
63	0xbe43bbfd	-0.1911468
64	0x3ea9c764	0.33159935
65	0x3e2ac7a3	0.16677718
66	0x3e39c211	0.18140437
67	0xbe97be3c	-0.29637325
68	0x3e03cc5e	0.12870929
69	0x3e4bec43	0.19914345
70	0xbe056b09	-0.13029112
71	0xbe6d86e1	-0.23195983
72	0x3e91c6ba	0.2847193
73	0x3e564546	0.20924863
74	0xbd03acb2	-0.032147117
75	0xbe6a8749	-0.2290317
76	0x3dac3a41	0.084095486
77	0x3d327933	0.043572616
78	0xbcd6f33e	-0.026239034
79	0x3e5f6400	0.2181549
80	0xbe3e1940	-0.1856432
81	0x3e4923b2	0.19642523
82	0x3dca9591	0.09891809
83	0xbdbe26e8	-0.092847645
84	0x3e4a03fa	0.1972808
85	0xbe849023	-0.25891218
86	0x3e6c83c8	0.23097146
87	0x3e0ff58a	0.1405851
88	0xbe83e3aa	-0.2575963
89	0x3e9f7ea0	0.31151295
90	0xbe0e69ee	-0.13907596
91	0x3d49015f	0.049073573
92	0x3e8e8603	0.27836618
93	0x3e88a883	0.26691064
94	0xbe192bf3	-0.14958172
95	0x3e388582	0.18019679
96	0xbe47c6f7	-0.19509493
97	0x3e56c5d6	0.20973906
98	0x3b5ac361	0.0033380615
99	0xbd7ae76e	-0.061255865
100	0xbe5068ae	-0.20352432
101	0xbdc18f01	-0.09451104
102	0x3d9aeaee	0.075643405
103	0xbdf16b64	-0.11788061
104	0x3e897d31	0.26853326
105	0xbdc05f6e	-0.09393202
106	0xbe530c1e	-0.20610091
107	0x3e7c33cf	0.24629138
108	0x3e2d7e23	0.16942649
109	0x3d83368d	0.06406889
110	0xbc14f8d6	-0.00909253
111	0xbd06cedb	-0.032912116
112	0x3c829c3d	0.01594364
113	0xbe352fee	-0.17694065
114	0x3d6a68f1	0.057228986
115	0xbdc383a5	-0.095465936
116	0x3da420ae	0.08014046
117	0x3e64a717	0.22329365
118	0x3c21c5d2	0.009873824
119	0x3de65d87	0.11248308
120	0x3e6a34e3	0.22871737
121	0x3e86f734	0.26360476
122	0xbe57bf05	-0.21068962
123	0xbe72bf78	-0.23705852
124	0x3e9c1605	0.3048555
125	0x3e16ebb7	0.14738356
126	0x3d81cafe	0.06337546
127	0x3e5a6a47	0.21329604
128	0xbe3b39eb	-0.18283813
129	0xbd29ef17	-0.04148778
130	0x3e183d4b	0.14867131
131	0x3e5db650	0.21651578
132	0xbe1d5af9	-0.15366735
133	0x3e69f187	0.22846042
134	0x3e75a8bd	0.2399015
135	0xbe7ff9b9	-0.24997605
136	0x3cc09567	0.02350874
137	0xbdcefd26	-0.10106878
138	0xbdc003f1	-0.09375752
139	0x3da97678	0.08274549
140	0x3cf09ac6	0.029370677
141	0xbddce98b	-0.10786732
142	0x3d8079e5	0.062732495
143	0x3dcad4c7	0.09903865
144	0x3d99af19	0.075041
145	0xbe539eda	-0.20666066
146	0xbe202221	-0.15638019
147	0xbdba71fd	-0.09103773
148	0x3e3a56bc	0.18197149
149	0x3a2b3f66	0.00065325794
150	0x3e15d171	0.14630677
151	0xbe8d3485	-0.27579132
152	0x3e14b5c0	0.14522457
153	0x3e821013	0.2540289
154	0x3b2034c8	0.0024445523
155	0xbe4474a4	-0.1918512
156	0x3cc9929d	0.024606043
157	0xbe8c2378	-0.2737081
158	0xbe38b1e1	-0.18036605
159	0x3d97e309	0.074163504
160	0x3d1e14bd	0.038593996
161	0x3e529857	0.20565926
162	0x3e020645	0.12697704
163	0x3c806fbd	0.015678281
164	0xbdd5d45d	-0.10440896
165	0x3e74838c	0.23878306
166	0xbd8671f4	-0.065647036
167	0x3e87ca83	0.26521692
168	0x3e6ceb8c	0.23136729
169	0xbdbe82ea	-0.093023136
170	0x3df32073	0.118714236
171	0x3e6c877c	0.23098558
172	0xbd53f8ad	-0.051750828
173	0x3e1cc636	0.15309986
174	0xbd331109	-0.043717418
175	0xbd31d067	-0.04341164
176	0xbe637b08	-0.22214901
177	0xbd425998	-0.047448725
178	0x3df8c700	0.12147331
179	0xbe3324e7	-0.17494546
180	0xba51d7ac	-0.0008004855
181	0x3dce90bd	0.100862004
182	0x3b92a493	0.004475185
183	0x3e19fa1b	0.15036814
184	0xbda66664	-0.08124998
185	0xbe24f0fa	-0.1610755
186	0xbdfd5b2e	-0.12370907
187	0x3e35e0ec	0.17761582
188	0x3db42dff	0.087978356
189	0xbc009d9b	-0.007850076
190	0xbe7e078e	-0.2480757
191	0xbda34f25	-0.0797408
192	0x3e08c0c4	0.13354784
193	0x3e51827e	0.20459935
194	0xbe84a56d	-0.2590746
195	0x3e814f7f	0.25255963
196	0x3e996e74	0.29967082
197	0x3e716931	0.23575284
198	0x3e8833b5	0.2660195
199	0x3da31b6b	0.07964214
200	0xbd0b17bc	-0.03395818
201	0x3e0b23a0	0.13587809
202	0xbe1cac91	-0.15300204
203	0x3e4a8066	0.19775543
204	0x3ce426f1	0.0278506
205	0xbe4c688d	-0.19961758
206	0x3e105208	0.14093792
207	0x3db467ae	0.08808838
208	0xbd496a9c	-0.049173936
209	0x3e5c73b5	0.21528514
210	0xbe29c2dc	-0.16578239
211	0xbe1b40f1	-0.15161492
212	0x3d203415	0.03911217
213	0x3e0b3a9e	0.1359658
214	0x3de98063	0.11401441
215	0xbe24a049	-0.16076769
216	0xbd030f69	-0.03199712
217	0xbe2dec0b	-0.16984574
218	0xbe0f5077	-0.13995539
219	0x3debc4d2	0.1151215
220	0x3d18c8b1	0.03730077
221	0xbe175253	-0.14777498
222	0xbd82948f	-0.063759916
223	0x3e0cfdce	0.13768694
224	0x3e19ff0f	0.15038703
225	0xbe8503ed	-0.25979558
226	0xbdfd8d19	-0.12380428
227	0x3c179911	0.0092528025
228	0xbe8a1616	-0.26969975
229	0xbd98cf7b	-0.07461449
230	0xbe34f8ad	-0.17672987
231	0x3e939b85	0.2882959
232	0x3e6c0cd9	0.23051776
233	0x3df3885b	0.11891242
234	0x3e14f765	0.14547499
235	0x3e21f760	0.15817022
236	0x3ea2dff9	0.31811503
237	0x3e6207dc	0.2207331
238	0x3e6aa2b3	0.22913627
239	0xbe4ab76e	-0.19796535
240	0xbe562162	-0.20911172
241	0x3d0b3ac1	0.03399158
242	0xbe38cbf0	-0.18046546
243	0x3e8b5a56	0.27217358
244	0xbd950970	-0.07277191
245	0x3e177a16	0.14792666
246	0xbe5a6027	-0.21325742
247	0x3e988416	0.29788274
248	0xbd673c8b	-0.056454223
249	0x3ea264b0	0.31717443
250	0x3e80d45c	0.25162017
251	0x3e3efd78	0.18651378
252	0x3e06bc05	0.13157661
253	0x3e55d45a	0.20881787
254	0xbd9721a4	-0.07379463
255	0xbe30167f	-0.17196082

Net1.fc_list.0.bias f4 [32]
0	0xbd372279	-0.04471061
1	0x3e82bee4	0.25536263
2	0xbe52974b	-0.20565526
3	0x3d976ae2	0.07393433
4	0x3e16b6d7	0.14718185
5	0x3e9c36cf	0.30510566
6	0xbe6eb7e6	-0.23312339
7	0x3e8b962c	0.2726301
8	0xbdc8757f	-0.097880356
9	0x3ea08dea	0.31358272
10	0x3e243057	0.16034065
11	0x3c56bb14	0.013106126
12	0xbd890fb0	-0.06692445
13	0xbb087977	-0.0020824352
14	0xbdf7f59e	-0.12107395
15	0xbd4f9561	-0.05067957
16	0xbe840485	-0.25784698
17	0x3cccdf61	0.02500886
18	0x3de24d2e	0.11049877
19	0xbe65d322	-0.22443822
20	0x3e24806f	0.16064619
21	0x3e7a3d6f	0.24437498
22	0xbd2d8af3	-0.04236884
23	0x3ca2c4a6	0.01986916
24	0xbd3f9436	-0.046772204
25	0x3d5aedd4	0.053449467
26	0xbdad34be	-0.084573254
27	0x3b9356fb	0.004496453
28	0x3e55e443	0.20887856
29	0xbe5e2b42	-0.21696189
30	0x3e886553	0.26639804
31	0x3e2988e2	0.16556123

Net1.fc_list.1.weight f4 [8, 32]
0	0xbe1a9b60	-0.15098333
1	0xbdbbb947	-0.09166198
2	0x3c70efe3	0.014705631
3	0x3d0963b6	0.033542357
4	0x3e3178d8	0.17331254
5	0xbde1facb	-0.11034163
6	0x3c6b6236	0.014366677
7	0xbd98ee27	-0.07467299
8	0x3e028c98	0.12748945
9	0xbdc545cd	-0.09632454
10	0xbd847954	-0.06468454
11	0xbd2b8939	-0.041878913
12	0xbe04fbb0	-0.12986636
13	0xbe106e8d	-0.14104672
14	0x3e1f1eba	0.15539065
15	0x3d485419	0.048908327
16	0x3e241e8e	0.1602728
17	0x3dadc2d4	0.08484426
18	0x3d5f3b7b	0.054500084
19	0x3de3fcdd	0.11132214
20	0xbcf5d09d	-0.030006701
21	0x3d327fce	0.043578915
22	0x3e12aa94	0.14322883
23	0x3d45c53d	0.048283804
24	0x3de7c308	0.11316496
25	0xbe206ea5	-0.15667208
26	0x3e74ca4a	0.23905292
27	0xbdc778f8	-0.0973987
28	0xbca259ca	-0.019818205
29	0xbd8581b7	-0.06518882
30	0x3e3108b9	0.17288484
31	0xbda61aa9	-0.08110554
32	0x3e036fc8	0.1283561
33	0xbdba6896	-0.091019794
34	0xbdab837b	-0.08374687
35	0xbd3e7035	-0.046493728
36	0x3dd0dc64	0.10198286
37	0x3db75fc9	0.089538164
38	0xbd798823	-0.060920846
39	0x3d8947b1	0.06703127
40	0x3b4ef5ea	0.0031579682
41	0x3e31159b	0.17293398
42	0xbe1eac00	-0.154953
43	0x3d844051	0.0645758
44	0xbdcd0401	-0.10010529
45	0xbe08bac7	-0.133525
46	0xbe290825	-0.16507013
47	0xbde5e612	-0.11225523
48	0x3e02c826	0.12771663
49	0x3d9fadcf	0.07796823
50	0xbd8e5198	-0.069491565
51	0xbe26d154	-0.1629079
52	0xbd9f6639	-0.07783169
53	0x3d5d4b6b	0.054027002
54	0x3d368c10	0.044567168
55	0xbd2be5d8	-0.041967243
56	0xbdaea6f8	-0.085279405
57	0xbdb4986b	-0.08818134
58	0xbda67ff0	-0.08129871
59	0x3d00ef89	0.03147844
60	0x3e1ab201	0.15106966
61	0x3b71c612	0.003689174
62	0xbd7ef86e	-0.06224864
63	0x3dcc3607	0.099712424
64	0x3e037fc4	0.12841707
65	0x3b4869d1	0.003058065
66	0xbd8afc74	-0.06786433
67	0xbe0ba630	-0.13637614
68	0xbe26bf26	-0.16283855
69	0x3e5da460	0.21644735
70	0x3d950ca1	0.072777994
71	0x3e3839de	0.17990825
72	0xbe160d3a	-0.14653483
73	0xbc9d8b7d	-0.019231552
74	0x3e4604b3	0.1933773
75	0xbe049985	-0.12949188
76	0xbd795698	-0.060873598
77	0xbdfa4744	-0.12220624
78	0xbcea16db	-0.028575351
79	0xbd9e7aa7	-0.07738238
80	0xbd87f9c6	-0.066394374
81	0xbe1c1f93	-0.1524642
82	0xbc247ce5	-0.010039543
83	0x3d901861	0.070359
84	0x3cf1b5c1	0.029505612
85	0xbdd03dd2	-0.10168041
86	0x3d1a540d	0.037677813
87	0x3be50a1b	0.00698973
88	0xbe1ac63a	-0.1511468
89	0x3db4117b	0.08792397
90	0xbd8edd38	-0.06975788
91	0xbd7372f0	-0.059435785
92	0xbd9a694c	-0.07539615
93	0xbd7e1096	-0.062027536
94	0xbdc070ba	-0.09396501
95	0xbe02a947	-0.12759887
96	0x3d67dec4	0.05660893
97	0x3bdb6029	0.006694813
98	0xbe134fe5	-0.14385946
99	0x3dc3807a	0.09545989
100	0x3e31a501	0.173481
101	0x3e24210e	0.16028234
102	0x3e291a5c	0.16513962
103	0x3dd9b47b	0.10630127
104	0x3cd7060e	0.026248004
105	0x3e2987a3	0.16555648
106	0xbd7a775e	-0.061148994
107	0xbd38081f	-0.04492962
108	0x3d293d2f	0.041318115
109	0xbdced769	-0.1009968
110	0xbd921f21	-0.071348436
111	0xbdcd428e	-0.1002246
112	0x3e1ec89e	0.15506217
113	0xbccf8c2a	-0.02533539
114	0xbd57f05b	-0.052719455
115	0xbe03ec33	-0.12883072
116	0x3da3f2d9	0.08005304
117	0x3e146ef5	0.14495452
118	0x3cb99c6d	0.022657597
119	0x3dd56b2b	0.10420831
120	0x3dda31b9	0.10654015
121	0xbd264fd9	-0.040603492
122	0xbe722270	-0.2364595
123	0x3bee8af4	0.007279748
124	0x3e4147f9	0.18875112
125	0xbdaf9854	-0.08573976
126	0xbe099957	-0.13437401
127	0xbd7c837b	-0.061648827
128	0xbe001e9d	-0.12511678
129	0x3d28f4c3	0.041249048
130	0xbd5b8a58	-0.05359873
131	0xbd669e61	-0.056303386
132	0x3e2c70e4	0.1683994
133	0xbdc95392	-0.09830393
134	0xbd5b9368	-0.053607374
135	0x3d29465f	0.041326877
136	0x3c8f55b2	0.017496917
137	0x3e0ceeb3	0.13762932
138	0x3d3715bb	0.04469846
139	0x3cdf37e9	0.02724834
140	0x3df23bb5	0.118277945
141	0x3e0284e8	0.12746012
142	0xbd18b6d4	-0.037283733
143	0xbe023463	-0.12715296
144	0x3e0c7352	0.13715866
145	0xbde5056b	-0.11182674
146	0xbc945d84	-0.018110998
147	0x3a0adfc5	0.00052976265
148	0xbde0f6c9	-0.109845705
149	0x3d029e77	0.031889405
150	0x3dc0f8e1	0.0942247
151	0xbcefa8df	-0.029255329
152	0xbe0f92bf	-0.14020823
153	0x3db9c146	0.09070067
154	0xbdf64b47	-0.12026077
155	0x3db7454d	0.08948765
156	0xbe205c42	-0.15660194
157	0xbd15ccbb	-0.0365722
158	0x3ce18268	0.027528003
159	0xbe13150c	-0.14363497
160	0x3e132081	0.14367868
161	0xbd5d85aa	-0.05408255
162	0x3ba02c82	0.0048881182
163	0xbdbf9ced	-0.09356103
164	0x3c3f5cb9	0.011679822
165	0x3ddeb98b	0.10875233
166	0x3d5cfa46	0.053949617
167	0xbd1454b6	-0.0362136
168	0x3e55867b	0.20852081
169	0x3ddca5d4	0.10773817
170	0xbd81c336	-0.06336062
171	0xbe1e0edc	-0.15435356
172	0x3ca59187	0.020210994
173	0xbc868426	-0.016420435
174	0xbd96680d	-0.07344065
175	0x3dd5f4cd	0.10447083
176	0xbdc1b0ab	-0.09457525
177	0x3e0eb94a	0.1393787
178	0x3d7907e8	0.060798556
179	0xbd495e58	-0.04916224
180	0xbe015930	-0.12631679
181	0xbdcec494	-0.10096088
182	0x3e4cb0d5	0.19989331
183	0x3db7b7bb	0.08970591
184	0x3e316c78	0.17326534
185	0x3c8dd457	0.017313166
186	0xbdd0a447	-0.101875834
187	0xbd85249a	-0.06501122
188	0xbe14b69c	-0.14522785
189	0x3d6b4f18	0.057448477
190	0x3e2f4fa1	0.1712022
191	0xbe27278d	-0.16323681
192	0x3c9b80c7	0.018982304
193	0xbe097c9b	-0.1342644
194	0x3d82efd0	0.06393397
195	0x3db663f0	0.0890578
196	0x3d44521b	0.047929864
197	0x3e6318ab	0.22177379
198	0x3d830c96	0.06398885
199	0x3e2619d3	0.16220789
200	0xbd15cd3f	-0.03657269
201	0x3e26863e	0.16262147
202	0x3e0f8573	0.1401575
203	0xbd9952db	-0.074865066
204	0xbdc67065	-0.09689406
205	0xbdaa6c4a	-0.08321436
206	0xbd8cea6c	-0.0688065
207	0x3dd08537	0.10181659
208	0xbdd8ace1	-0.10579849
209	0x396b45f4	0.00022437406
210	0xbc8fd5e2	-0.017558042
211	0xbe1a9d94	-0.15099174
212	0xbe11b17b	-0.1422786
213	0xbe325d3f	-0.17418383
214	0x3df056e7	0.11735325
215	0x3d8125ea	0.0630606
216	0x3e1c8a3a	0.15287104
217	0xbd99af94	-0.07504192
218	0xbdd3302f	-0.10311925
219	0xbd4c8b78	-0.049937695
220	0xbe4d6bf3	-0.2006071
221	0xbe5e8bcd	-0.21733017
222	0x3e216744	0.15762049
223	0x3e0feff0	0.14056373
224	0xbe3dacdc	-0.18522972
225	0x3e2f78a2	0.17135862
226	0x3d321f93	0.043487143
227	0xbe09af69	-0.1344582
228	0xbdc24580	-0.09485912
229	0x3db9fb06	0.09081082
230	0xbcff8c8a	-0.031194944
231	0xbe30bb01	-0.17258836
232	0xbe32e7bf	-0.17471217
233	0xbd936d03	-0.07198527
234	0xbcc66b10	-0.024220973
235	0xbdd3a8f5	-0.1033496
236	0xbdaffe3f	-0.085934155
237	0x3e0b9537	0.1363114
238	0xbc8bdbc7	-0.017072571
239	0x3e24a5c2	0.16078857
240	0xbe29bfd8	-0.16577089
241	0xbe409ef0	-0.1881063
242	0x3d9167f9	0.07099909
243	0xbbafe1de	-0.0053675016
244	0x3dd5676f	0.10420119
245	0x3d183b45	0.0371659
246	0x3df8381f	0.12120079
247	0xbe1f0b34	-0.15531617
248	0x3dd86393	0.10565867
249	0x3d917057	0.07101505
250	0xbdc68b30	-0.09694517
251	0x3da334f1	0.07969082
252	0xbe1c9de0	-0.152946
253	0xbe05d71c	-0.13070339
254	0xbd4b6d88	-0.049665004
255	0x3cc8787c	0.024471514

Net1.fc_list.1.bias f4 [8]
0	0x3dd0120c	0.10159692
1	0x3dacaef8	0.0843181
2	0x3e2f1a55	0.17099889
3	0x3e598648	0.2124263
4	0x3ce086a4	0.027407952
5	0xbdfcc940	-0.12343073
6	0xbdead253	-0.114658974
7	0xbbbe9337	-0.005815889

Net2.fc_list.0.weight f4 [32, 11]
0	0xbcf016c5	-0.029307732
1	0xbdd7e156	-0.10541026
2	0x3dd4ab59	0.103842445
3	0xbe9a0f18	-0.3008964
4	0x3ce2a20a	0.027665157
5	0xbe856e6e	-0.26060814
6	0x3de3b339	0.111181684
7	0x3e237202	0.1596146
8	0x3e13613f	0.14392565
9	0x3dcd802a	0.10034211
10	0xbe7c4812	-0.24636868
11	0x3d95684e	0.07295285
12	0x3e264380	0.16236687
13	0xbe2a08a8	-0.16604865
14	0x3e0897fe	0.1333923
15	0x3e27ccff	0.16386794
16	0xbe3a54ae	-0.18196365
17	0x3d9d3c7f	0.07677554
18	0x3d0287f5	0.03186794
19	0x3e8a6fef	0.27038524
20	0x3e2d35a4	0.16914994
21	0xbdd1b0ff	-0.102388375
22	0xbe72b6c8	-0.23702538
23	0x3db8759b	0.090068065
24	0x3d928fc5	0.07156328
25	0x3e6d6181	0.23181726
26	0x3cd04a08	0.025425926
27	0x3d7e1520	0.062031865
28	0x3e74215e	0.23840854
29	0xbe990923	-0.29889783
30	0xbe199b84	-0.15000731
31	0xbe7f408d	-0.24926968
32	0x3ec186fa	0.3779829
33	0xbe2ac42c	-0.16676396
34	0xbe8017f8	-0.25018287
35	0x3d532d08	0.051556617
36	0xbe19fdc7	-0.15038215
37	0xbd522df5	-0.05131336
38	0xbe59d5ee	-0.21273014
39	0x3e581dc3	0.21105103
40	0x3d91cd67	0.071192555
41	0x3e4682a5	0.19385774
42	0x3e3972da	0.18110219
43	0xbe5d3539	-0.21602334
44	0x3e839e01	0.25706485
45	0xbdca0aae	-0.09865318
46	0x3c7df322	0.015499862
47	0xbe20c460	-0.15699911
48	0x3dc6be40	0.09704256
49	0x3baefcff	0.005340218
50	0xbea0376e	-0.3129229
51	0xbd877e16	-0.06615846
52	0x3e8eaaaa	0.2786458
53	0x3d3151da	0.04329095
54	0x3e709126	0.2349287
55	0xbe6b039a	-0.22950593
56	0x3e6e492f	0.23270105
57	0xbe084230	-0.13306499
58	0xbd6e55d0	-0.058187306
59	0xbe908602	-0.2822724
60	0x3db1f74f	0.086897485
61	0x3d9269bc	0.071490735
62	0xbd08084d	-0.03321104
63	0xbdc5e78f	-0.09663307
64	0x3e0a38ed	0.13498278
65	0x3e144416	0.14479098
66	0x3e733744	0.23751551
67	0x3df7450b	0.12073716
68	0x3da30fa9	0.07961971
69	0x3d78377d	0.060599793
70	0x3e542831	0.20718457
71	0x3da2202c	0.079162925
72	0xbdb4c5bf	-0.088267796
73	0xbe65e0d3	-0.22449045
74	0xbe599eff	-0.21252058
75	0x3daeac13	0.08528914
76	0xbe8b7ad6	-0.27242154
77	0xbab903d1	-0.0014115517
78	0x3deeb123	0.1165488
79	0x3e0a6cf8	0.13518131
80	0xbdfabbd9	-0.1224286
81	0x3dbef0e3	0.09323289
82	0x3d53f60e	0.051748328
83	0xbdedebf8	-0.11617273
84	0x3b900300	0.004394889
85	0xbe8b3940	-0.27192116
86	0xbbc7ef0f	-0.006101496
87	0xbe4bf24a	-0.19916645
88	0xbdd6158a	-0.10453327
89	0x3dee73ff	0.11643218
90	0xbdf3f42b	-0.11911806
91	0xbe1b54a1	-0.15169002
92	0xbe527c4f	-0.20555232
93	0x3d997372	0.074927226
94	0xbe66378e	-0.2248213
95	0x3d066287	0.032808807
96	0x3e8cd590	0.27506685
97	0xbaeb547c	-0.0017954255
98	0x3e319766	0.1734291
99	0xbe411912	-0.1885722
100	0xbe3eab0d	-0.18619938
101	0x3dade205	0.084903754
102	0xbd89d161	-0.06729389
103	0xbe6620bc	-0.22473425
104	0x3d2256a7	0.03963342
105	0x3e4cd0ca	0.20001522
106	0xbe3cdb78	-0.18443096
107	0x3e100d04	0.14067465
108	0x3c926adc	0.01787322
109	0xbd261f7c	-0.04055737
110	0xbd7e3a34	-0.062067226
111	0x3bcbca82	0.006219209
112	0xbd500f56	-0.050795875
113	0xbcfd329c	-0.030907921
114	0x3e68a31b	0.2271847
115	0xbe19d3c6	-0.15022191
116	0xbe0662f4	-0.13123685
117	0x3e28fa91	0.16501833
118	0x3dc434aa	0.095803574
119	0xbde5b7d9	-0.11216707
120	0x3e6e215d	0.23254915
121	0xbd0ba5dc	-0.034093723
122	0x3e5f8b31	0.21830441
123	0x3c5d0f4f	0.013492419
124	0x3be80bf4	0.007081503
125	0x3d352bc2	0.044231184
126	0x3e6b114f	0.22955821
127	0xbe88bffb	-0.2670897
128	0xbe8c59a9	-0.27412155
129	0xbe068750	-0.13137555
130	0xbd7c97b7	-0.061668124
131	0xbe802f9d	-0.25036326
132	0xbe98ec92	-0.2986799
133	0xbe6a280c	-0.22866839
134	0x3e49db3b	0.19712536
135	0x3e8ceb5e	0.2752332
136	0xbe6279f8	-0.2211684
137	0x3e5fb612	0.21846798
138	0xbde3684e	-0.11103879
139	0xbe31e0ab	-0.1737086
140	0xbbd71c4c	-0.0065646525
141	0x3d1035c0	0.03520751
142	0x3e992821	0.29913428
143	0x3e309370	0.17243743
144	0x3dc9fa43	0.09862187
145	0x3e918a90	0.28426027
146	0xbdead747	-0.11466842
147	0x3db2fbc6	0.08739428
148	0xbdc3521b	-0.09537145
149	0x3e878548	0.26468873
150	0xbe808615	-0.25102296
151	0xbe8099ae	-0.25117248
152	0xbdc3be27	-0.09557753
153	0xbd7ced9a	-0.061750032
154	0xbe1f508e	-0.15558073
155	0x3e75da7b	0.24009125
156	0xbdd813e0	-0.10550666
157	0x3bdbc114	0.0067063663
158	0xbe9b6b92	-0.30355507
159	0xbe43db23	-0.19126563
160	0x3a67ce29	0.0008842671
161	0xbe25aa31	-0.16178204
162	0xbcd34d6b	-0.025793752
163	0xbddbe3b6	-0.10736792
164	0xbdb50232	-0.08838309
165	0xbe174af5	-0.14774688
166	0xbd5167b4	-0.05112429
167	0x3e8272de	0.25478262
168	0x3e89b2e7	0.26894304
169	0xbe688b3b	-0.22709362
170	0xbe06c23d	-0.13160034
171	0x3b4d0112	0.0031281156
172	0x3d6e53af	0.058185276
173	0x3d9bdefc	0.0761089
174	0x3e825c77	0.2546117
175	0xbb902e60	-0.0044000596
176	0x3e751604	0.2393418
177	0xbe012885	-0.12613113
178	0xbea306da	-0.31841165
179	0x3e84bddb	0.25926098
180	0x3e04a096	0.12951884
181	0xbe569ecb	-0.20959012
182	0xbe9912a0	-0.29897022
183	0xbd993ffc	-0.07482907
184	0xbe6f9ff7	-0.23400865
185	0xbdce2aa8	-0.1006673
186	0x3e55cc53	0.20878725
187	0x3e2fd1dd	0.171699
188	0x3d892f89	0.0669852
189	0x3e6cf33d	0.23139663
190	0xbd611044	-0.054947153
191	0xbd3c35ed	-0.045949865
192	0x3e37ca2c	0.17948216
193	0x3ea69dd7	0.32542297
194	0xbdeef417	-0.1166765
195	0x3e1b4e9f	0.1516671
196	0x3e857fa8	0.26073956
197	0x3e86623a	0.26246816
198	0xbdc0e1c9	-0.09418065
199	0xbdafdf67	-0.085875325
200	0xbe7f66c9	-0.24941553
201	0xbcfe1d78	-0.031019911
202	0xbe86bbb5	-0.26315084
203	0x3d12716e	0.035752706
204	0xbdaae864	-0.08345106
205	0xbdc87e13	-0.09789672
206	0x3e28ff6e	0.16503689
207	0xbe5cca3a	-0.21561518
208	0xbe24ae3c	-0.1608209
209	0x3ea4b814	0.3217169
210	0xbb9ff0b6	-0.00488099
211	0x3e819b05	0.25313583
212	0x3dcb3974	0.09923068
213	0x3e31c6d4	0.17361003
214	0x3e6f07b3	0.23342781
215	0x3e1feab8	0.15616882
216	0x3d95a2fd	0.07306478
217	0xbcbb5c40	-0.022871137
218	0x3e58607f	0.2113056
219	0xbe61a5e6	-0.22035941
220	0x3e40d2e6	0.18830451
221	0x3d14f6ff	0.036368366
222	0xbdfe50f9	-0.12417788
223	0x3dd96da1	0.10616613
224	0x3e36d579	0.17854871
225	0x3e964fb2	0.29357678
226	0xbd4aa92c	-0.04947774
227	0x3d5b218e	0.053498797
228	0x3e2a82b1	0.16651417
229	0xbda49ea3	-0.0803807
230	0xbe833783	-0.2562829
231	0xbe090705	-0.13381584
232	0xbe2ab9d0	-0.16672444
233	0xbe99c3dd	-0.30032244
234	0x3d218093	0.03942926
235	0x3d248293	0.040163588
236	0x3e9bd9c4	0.3043958
237	0xbd30f41c	-0.04320155
238	0xbdcbe54e	-0.09955846
239	0x3e11ae71	0.142267
240	0xbdf2ba36	-0.11851923
241	0xbdf9961a	-0.12186833
242	0xbda5afbb	-0.080901586
243	0x3e31fce2	0.17381623
244	0x3e6130a6	0.21991214
245	0xbe08e32a	-0.13367906
246	0xbe785721	-0.24251987
247	0x3d88bd43	0.06676724
248	0xbe942f50	-0.28942347
249	0x3e982ab8	0.29720092
250	0x3d0e8275	0.034792382
251	0xb9afdb43	-0.00033541964
252	0x3e6477bf	0.22311305
253	0xbd46812e	-0.04846304
254	0x3df8b09f	0.12143063
255	0xbe0521ba	-0.13001147

Net2.fc_list.0.bias f4 [32]
0	0x3e7c8f8a	0.24664131
1	0xbe7256ea	-0.23665968
2	0x3e00653a	0.12538615
3	0xbca154ba	-0.019693721
4	0xbe8c7749	-0.27434757
5	0xbd9a7523	-0.07541873
6	0xbe3b24fb	-0.18275826
7	0x3c03d343	0.008045974
8	0x3e39d2c9	0.18146814
9	0xbbead310	-0.007166274
10	0xbe90a3da	-0.2825001
11	0x3cccaf7a	0.024986017
12	0xbcc4feaf	-0.024047224
13	0x3dfd0a66	0.12355499
14	0xbe7b15c1	-0.24520017
15	0x3e61ee57	0.22063576
16	0x3e1c4e34	0.15264207
17	0xbcad9401	-0.021188738
18	0x3e1251ef	0.14289068
19	0x3e8b3635	0.27189794
20	0x3d6e668a	0.058203258
21	0xbe1d7128	-0.15375197
22	0xbd294bb1	-0.04133195
23	0x3e519674	0.2046755
24	0xbe0f9255	-0.14020665
25	0xbd9e852e	-0.07740246
26	0xbd3324b3	-0.04373617
27	0x3dbf73eb	0.093482815
28	0xbca7fbb7	-0.02050577
29	0x3e1992d5	0.14997418
30	0x3e069418	0.13142431
31	0x3d580e7f	0.0527482

Net2.fc_list.1.weight f4 [8, 32]
0	0xbd9a688c	-0.07539472
1	0x3df81fc8	0.12115437
2	0x3d9da99f	0.07698368
3	0xbdb2a902	-0.08723642
4	0x3e277ebe	0.16356942
5	0x3cc3bbff	0.023893354
6	0xbe16d22d	-0.14728613
7	0xbe20885c	-0.15677017
8	0xbdfae95f	-0.12251543
9	0x3e0940e1	0.13403656
10	0x3de780eb	0.11303886
11	0x3d8e39e4	0.069446355
12	0x3d0cb4b4	0.03435202
13	0xbdc76d7f	-0.097376816
14	0x3daecc30	0.085350394
15	0xbdc63a9e	-0.09679149
16	0xbdee7f7e	-0.11645411
17	0x3dbb7d74	0.09154788
18	0x3e014b24	0.1262632
19	0x3da44d15	0.08022515
20	0x3e1073d2	0.14106682
21	0xbd41414c	-0.047181413
22	0xbe067b7d	-0.13133045
23	0xbdf090e7	-0.11746388
24	0x3da3f0d4	0.08004919
25	0x3db31648	0.08744484
26	0x3dc2a744	0.0950456
27	0xbe0d9994	-0.13828117
28	0xbdd3b122	-0.1033652
29	0xbdd21827	-0.10258513
30	0xbd3898cc	-0.045067593
31	0xbde128d0	-0.109941125
32	0xbd11a5d9	-0.035558555
33	0xbe13a007	-0.14416514
34	0x3e28e9fb	0.16495506
35	0xbb26ff98	-0.0025481936
36	0x3dd6a6a0	0.10481
37	0x3d18c9c1	0.037301783
38	0xbe007a0d	-0.12546559
39	0x3dfd66d6	0.1237313
40	0x3e152d0e	0.14567968
41	0xbdd3b6e2	-0.103376165
42	0xbdfa672f	-0.12226712
43	0xbe2fcc62	-0.1716781
44	0x3dd58413	0.10425582
45	0x3c978106	0.01849414
46	0xbd96dd4c	-0.07366428
47	0xbd8d862a	-0.069103554
48	0x3de83dfe	0.11339949
49	0x3d6e6e56	0.058210693
50	0x3e166241	0.14685918
51	0xbda3b41a	-0.07993336
52	0x3e0f6068	0.1400162
53	0x3cdc2a3d	0.02687561
54	0xbe29c94a	-0.16580692
55	0xbdc56eb8	-0.096402586
56	0x3d6b6d12	0.057477064
57	0x3dbaa25d	0.091129996
58	0xbd7633c1	-0.06010795
59	0x3d4b03d0	0.049564183
60	0xbd18916b	-0.037248056
61	0xbd908626	-0.07056837
62	0xbd21a45c	-0.039463386
63	0x3ceec961	0.02914876
64	0x3de9c2e9	0.11414129
65	0xbd51c93d	-0.051217306
66	0xbd5ae56d	-0.053441454
67	0x3d2f5a52	0.042810746
68	0x3d59085e	0.052986495
69	0xbda9845b	-0.08277198
70	0xbc833b3b	-0.016019454
71	0xbda54704	-0.08070186
72	0x3bd4e06d	0.00649648
73	0xbe06d262	-0.13166192
74	0xbcdfa5fe	-0.02730083
75	0xbd8f8625	-0.07008008
76	0x3d232132	0.03982658
77	0xbe18801e	-0.14892623
78	0xbd6218cf	-0.05519944
79	0x3cb1d04f	0.021705775
80	0x3e047b83	0.12937741
81	0xbde7fa18	-0.113269985
82	0x3dcfbb46	0.101431414
83	0xbafb9fc3	-0.0019197393
84	0x3d5c4023	0.053772103
85	0x3bf3d6dc	0.0074413847
86	0xbe33abfe	-0.17546079
87	0xbd27d7af	-0.040977176
88	0xbd68f9b9	-0.05687878
89	0x3e24f747	0.16109954
90	0xbd1af4b8	-0.03783104
91	0xbdfa6aa9	-0.12227375
92	0x3dc97d08	0.09838301
93	0xbe047c87	-0.12938128
94	0xbe022773	-0.12710361
95	0xbd853a1d	-0.06505225
96	0x3e1f89f8	0.15579975
97	0xbe11362f	-0.14180826
98	0xbe4e7875	-0.20163138
99	0xbe2a5461	-0.1663375
100	0xbda931a5	-0.08261422
101	0x3d6a7242	0.05723787
102	0x3dfa6079	0.12225432
103	0x3d957184	0.07297042
104	0xbddd73c6	-0.10813098
105	0x3dc6bbbf	0.097037785
106	0x3c37bc7a	0.01121437
107	0x3dea0cac	0.11428198
108	0xbd2568da	-0.040383197
109	0x3da43cc4	0.080194026
110	0x3dc89ad3	0.097951554
111	0xbdad2686	-0.084546134
112	0xbd477ee2	-0.04870499
113	0xbce2a169	-0.027664857
114	0x3e2a8264	0.16651303
115	0x3d547586	0.05186989
116	0xbe187a0b	-0.14890306
117	0x3cd625d2	0.026141081
118	0x3de461e6	0.11151485
119	0xbd4b99d8	-0.049707264
120	0x3daba2b6	0.08380644
121	0x3d4c65b6	0.049901687
122	0x3dde862a	0.108654335
123	0x3dd7bfd0	0.10534632
124	0xbda12e28	-0.07870132
125	0x3d4bdf7e	0.049773686
126	0xbe160bc5	-0.14652927
127	0x3e2d8df8	0.16948688
128	0xbdc82e5d	-0.09774468
129	0x3d93cc35	0.07216684
130	0x3d257804	0.04039766
131	0x3d96411e	0.07336639
132	0xbd8e9b35	-0.06963197
133	0x3d7141c3	0.058900606
134	0x3e0c0161	0.13672401
135	0xbe2e6a0d	-0.17032643
136	0xbe25ee70	-0.16204238
137	0xbd324b2a	-0.043528713
138	0xbda58d2a	-0.080835655
139	0x3db0ab51	0.08626426
140	0x3e2c8742	0.16848472
141	0x3ccef4d0	0.02526322
142	0xbd8241a2	-0.06360175
143	0xbe065d70	-0.13121581
144	0xbe2966d4	-0.16543132
145	0x3e026390	0.12733293
146	0xbd7d6fa7	-0.061874058
147	0x3b6ca2ef	0.0036107858
148	0x3dd795a3	0.10526588
149	0xbc8073ff	-0.015680311
150	0xbdb33e53	-0.08752122
151	0xbd86b8f1	-0.065782435
152	0xbccc2218	-0.0249186
153	0x3e000d56	0.12505087
154	0x3dfdd762	0.12394597
155	0xbd59f2a3	-0.053209912
156	0x3e1fc890	0.15603852
157	0x3e06fa0f	0.13181327
158	0xbcbeeebd	-0.023307199
159	0xbd5c0995	-0.053720076
160	0xbdab390c	-0.0836049
161	0xbe1d1804	-0.15341192
162	0x3dfc3cc7	0.1231628
163	0xbd50c4ce	-0.050968938
164	0x3d59dfe6	0.05319204
165	0xbe105c42	-0.14097694
166	0xbd546caa	-0.051861443
167	0x3d7c9d8e	0.061673693
168	0x3df75c91	0.120782025
169	0xbd7b9c78	-0.061428517
170	0x3c8d750f	0.017267732
171	0xbdcabd20	-0.09899354
172	0xbd94f5eb	-0.07273468
173	0xbd929bb9	-0.07158608
174	0xbaf19e59	-0.0018434032
175	0x3d97f585	0.07419876
176	0xbe16772c	-0.14693898
177	0xbdd4bbe7	-0.10387402
178	0xbe221f7d	-0.15832324
179	0xbe24918e	-0.1607115
180	0x3e0f31ba	0.13983813
181	0x3d3c8d8d	0.04603343
182	0xbd38fa14	-0.045160368
183	0x3e137d17	0.14403187
184	0xbdfb074a	-0.1225725
185	0x3c6db682	0.014508845
186	0xbd827f79	-0.0637197
187	0xbd039ad4	-0.032130077
188	0x3e1815cd	0.14852066
189	0x3d862e5f	0.06551813
190	0xbe0a67e5	-0.13516195
191	0xbd276900	-0.04087162
192	0xbda8fdba	-0.082515195
193	0x3d6e9176	0.05824419
194	0xbe265105	-0.16241844
195	0xbd8fb87a	-0.07017608
196	0x3e29b7b7	0.16573988
197	0xbe31bba0	-0.1735673
198	0x3cd83081	0.026390316
199	0x3d688358	0.056765884
200	0xbdf4a858	-0.119461715
201	0xbce275b7	-0.027644021
202	0xbd7c0d3d	-0.061536063
203	0xbe0be5dd	-0.13661905
204	0x3c69f868	0.014280416
205	0xbdc7c70d	-0.09754763
206	0x3e365330	0.17805171
207	0xbe1e2c57	-0.15446602
208	0x3dadf167	0.084933095
209	0xbcdacdf7	-0.02670954
210	0xbe043738	-0.1291169
211	0xbd2f1f8e	-0.042754702
212	0xbe1d9c4d	-0.15391655
213	0xbc932009	-0.017959611
214	0xbddf846d	-0.1091393
215	0x3d9b8b05	0.07594875
216	0xbdb68316	-0.089117214
217	0x3cd4a6b5	0.025958398
218	0xbd189c76	-0.037258588
219	0xbdff9385	-0.12479309
220	0x3da12fc6	0.0787044
221	0xbd186ad2	-0.037211247
222	0xbcbf177d	-0.02332663
223	0xbde70104	-0.112794906
224	0xbd9b82c6	-0.075933024
225	0x3e096996	0.13419184
226	0x3e078a52	0.13236359
227	0x3d85b140	0.065279484
228	0xbe484314	-0.19556838
229	0x3e00ed4b	0.1259052
230	0xbcce8dc8	-0.025214091
231	0x3da3d494	0.079995304
232	0xbdfac082	-0.12243749
233	0x3d8ff04a	0.070282534
234	0x3e1c9741	0.15292074
235	0x3d87ad3f	0.06624841
236	0x3b460ae7	0.00302189
237	0xbd925e5e	-0.07146905
238	0x3d606038	0.05477926
239	0xbe31f632	-0.17379072
240	0xbdf146c7	-0.11781078
241	0x3e10a312	0.14124706
242	0x3e287ec1	0.16454603
243	0x3c83d577	0.016092999
244	0xbc826cc2	-0.015921
245	0xbd2caeb2	-0.04215879
246	0xbc4096d8	-0.011754714
247	0xbdd08730	-0.10182035
248	0xbe3d0b59	-0.1846136
249	0x3ccbc676	0.024874907
250	0xbd2c9ef0	-0.042143762
251	0x3dfc4e09	0.123195715
252	0xbc9c95e4	-0.019114442
253	0xbe0157fd	-0.12631221
254	0xbc097501	-0.008389712
255	0x3e326f58	0.17425287

Net2.fc_list.1.bias f4 [8]
0	0x3dcd73e1	0.10031868
1	0xbe2dbea3	-0.16967253
2	0x3d0d2a41	0.034464125
3	0xbe03094f	-0.1279652
4	0x3e187723	0.14889197
5	0x3c375142	0.011188807
6	0x3d88526e	0.06656347
7	0xbe1c9f4b	-0.1529514

Net3.fc_list.0.weight f4 [16, 10]
0	0xbda14ab2	-0.07875575
1	0xbcf6ec00	-0.03014183
2	0x3da4fd69	0.08056147
3	0xbd34b5ef	-0.044118818
4	0xbcbee4bd	-0.02330243
5	0x3e83ff31	0.25780633
6	0xbe792053	-0.24328737
7	0xbe4dd74b	-0.20101659
8	0xbe9bcf71	-0.30431703
9	0x3e96dce8	0.29465413
10	0x3ca20ae3	0.019780582
11	0x3e705adc	0.2347216
12	0xbe2f9e82	-0.1715031
13	0xbe3cfa56	-0.1845487
14	0x3cb94842	0.022617463
15	0xbe8011c2	-0.25013548
16	0x3e615d52	0.22008255
17	0x3dc336d5	0.09531943
18	0x3e186200	0.14881134
19	0x3e46609c	0.19372791
20	0x3e2fb46c	0.17158669
21	0xbd6e85c9	-0.058233056
22	0x3dfe8f3c	0.124296635
23	0xbe57ebde	-0.2108607
24	0x3ea678f4	0.32514155
25	0x3e3c7e2b	0.18407504
26	0x3e38a4d7	0.18031631
27	0x3ea354d5	0.3190066
28	0x3e3e5ec9	0.18590845
29	0xbd5646d8	-0.052313656
30	0x3bec5698	0.007212471
31	0xbdf4318b	-0.11923512
32	0x3ce50f8a	0.027961511
33	0x3e630fe4	0.2217403
34	0xbc9eb0c1	-0.019371392
35	0xbe0d9637	-0.13826834
36	0xbe6ef1a0	-0.2333436
37	0xbd4e51e7	-0.050371077
38	0xbe867c0f	-0.26266524
39	0x3d76c4be	0.06024622
40	0xbe8dbc33	-0.27682647
41	0x3e6ffbee	0.23435947
42	0x3de0ab0d	0.10970125
43	0xbd93f8ba	-0.07225175
44	0x3e8978c4	0.2684995
45	0x3e26c978	0.16287792
46	0x3b2b649a	0.0026152493
47	0xbe58ce94	-0.21172553
48	0xbe969d64	-0.29416955
49	0xbd682ada	-0.05668149
50	0xbdc63840	-0.096786976
51	0xbe2e3482	-0.17012218
52	0xbe34f6d0	-0.17672276
53	0x3e12d4e6	0.14339027
54	0xbe4a0f92	-0.19732502
55	0xbe70189c	-0.23446888
56	0x3e5ce1e1	0.21570541
57	0xbe4b0192	-0.19824818
58	0xbcf3ae0c	-0.029746078
59	0x3ea77cb9	0.32712343
60	0xbe371c63	-0.17881922
61	0x3e281f73	0.16418247
62	0x3cff4d2a	0.031164724
63	0xbe1d4ebf	-0.1536207
64	0x3e3314c9	0.17488398
65	0xbdeb7126	-0.11496191
66	0xbe6877b7	-0.22701918
67	0x3e59e3ac	0.21278256
68	0xbe7266ed	-0.23672076
69	0xbe97019e	-0.2949342
70	0x3e84c681	0.25932696
71	0xbe3c4d46	-0.18388852
72	0xbe83960a	-0.25700408
73	0xbe40225e	-0.1876311
74	0x3e32ed33	0.17473297
75	0xbe825cdb	-0.25461468
76	0x3e8297f7	0.25506565
77	0xbe93fa4d	-0.28901902
78	0xbdbc4941	-0.091936596
79	0x3daddc6f	0.0848931
80	0xbbca8354	-0.0061802063
81	0xbe27627e	-0.16346166
82	0xbd29a621	-0.0414182
83	0xbe5ee541	-0.21767141
84	0xbd21f44e	-0.039539628
85	0x3c4d5c64	0.012534235
86	0x3e6c1d89	0.23058142
87	0x3b02136a	0.0019847997
88	0xbe978164	-0.29590905
89	0xbe4ec2c4	-0.20191485
90	0xbe88ea96	-0.26741475
91	0x3d34a2bb	0.044100504
92	0x3d756d99	0.059918974
93	0xbe8d137c	-0.27553928
94	0xbc014ac4	-0.007891361
95	0x3e539303	0.2066155
96	0xbd472463	-0.048618685
97	0x3e11cc14	0.14238006
98	0x3e993a4f	0.29927298
99	0x3e435ab3	0.19077568
100	0x3e865cd9	0.26242712
101	0x3d89e041	0.06732226
102	0x3e907faa	0.282224
103	0xbe912c3c	-0.2835406
104	0x3cca4e4a	0.024695534
105	0xbdb3cb0e	-0.08778964
106	0xbc9164f6	-0.017748337
107	0xbdf2762f	-0.11838948
108	0x3d132cf5	0.035931546
109	0x3e301d93	0.17198782
110	0xbe91fcf7	-0.2851331
111	0xbe8d93e9	-0.2765191
112	0xbe2bfdf3	-0.16796093
113	0x3e4c8ea7	0.19976293
114	0xbe95c646	-0.29252833
115	0x3e58b8aa	0.21164194
116	0x3e6b78fb	0.22995369
117	0x3e125e4c	0.14293784
118	0x3e9bcb3c	0.30428493
119	0xbd8cea70	-0.06880653
120	0xbc4bb8c2	-0.012434186
121	0xbe5cb5f5	-0.21553786
122	0x3e8a435c	0.27004516
123	0x3de408d5	0.11134497
124	0x3dbc3420	0.091896296
125	0x3d3e04af	0.046391185
126	0x3e5c1824	0.21493584
127	0x3cb2b03e	0.021812554
128	0xbe03aa55	-0.12857945
129	0x3d4743b0	0.048648536
130	0xbe145d0c	-0.1448862
131	0x3d705ed9	0.058684204
132	0xbe7aed5b	-0.24504606
133	0xbdd39cf9	-0.103326745
134	0xbcc0bd53	-0.023527777
135	0x3dfcd381	0.12345029
136	0x3e7348e7	0.23758279
137	0x3e722fda	0.23651066
138	0x3d8538f8	0.065050066
139	0x3d9e477e	0.0772848
140	0x3da7b9c1	0.081897266
141	0xbe93663e	-0.28788942
142	0xbd788533	-0.060673904
143	0x3e86abb5	0.26302877
144	0x3e7cc5ed	0.24684878
145	0x3d6a2641	0.057165388
146	0x3e683f39	0.22680368
147	0x3db1296e	0.0865048
148	0x3e9a2b24	0.3011104
149	0x3e07acfe	0.13249585
150	0x3e3724a4	0.17885071
151	0x3e28a967	0.16470872
152	0x3e5e30cf	0.21698307
153	0x3dddbeff	0.10827445
154	0x3c4266d2	0.011865335
155	0xbe03b0fc	-0.12860483
156	0xbd0ca084	-0.034332767
157	0xbe256c13	-0.16154508
158	0xbd96168b	-0.073285185
159	0xbb5d356f	-0.0033753773

Net3.fc_list.0.bias f4 [16]
0	0xbe20eaca	-0.15714565
1	0x3e173168	0.1476494
2	0x3d64e1dc	0.05587946
3	0x3e6a76fc	0.22896951
4	0x3e6973b8	0.2279805
5	0x3e919579	0.2843435
6	0xbe3a387e	-0.18185613
7	0x3de46c97	0.11153524
8	0x3cbaaf44	0.022788651
9	0xbe993d90	-0.2992978
10	0x3e4ff530	0.20308375
11	0xbe363fa4	-0.17797714
12	0xbd449b16	-0.047999464
13	0xbe29d561	-0.16585304
14	0x3da6f9d1	0.081531174
15	0xbe775804	-0.24154669

Net3.fc_list.1.weight f4 [4, 16]
0	0x3e8ad6d6	0.27117032
1	0x3d9c75d3	0.07639661
2	0x3e7f57e7	0.24935876
3	0x3e4c0f1c	0.19927639
4	0x3deffc00	0.11717987
5	0xbd8be7a4	-0.06831291
6	0x3d0870d8	0.03331074
7	0xbdc47027	-0.09591704
8	0xbd769498	-0.060200304
9	0xbd91a7cb	-0.07112082
10	0xbd027201	-0.031847004
11	0xbde5e2bf	-0.11224889
12	0x3e543a64	0.207254
13	0xbc8b5c7a	-0.01701187
14	0x3d7b84dc	0.061406
15	0x3e4ab672	0.1979616
16	0x3e9e8876	0.30963486
17	0xbe59a72a	-0.21255174
18	0x3bd2bb60	0.0064310282
19	0xbe3c6874	-0.1839922
20	0xbcc78450	-0.024355084
21	0x3df8030b	0.121099554
22	0x3e7ce49c	0.24696583
23	0xbd09b68a	-0.03362135
24	0x3d8675d4	0.06565443
25	0xbe607feb	-0.21923797
26	0xbe3b429b	-0.18287127
27	0x3e4aa172	0.19788149
28	0x3ddfe6ec	0.10932717
29	0x3e4fb6a8	0.20284522
30	0x3e71a267	0.23597108
31	0x3dcdc1d4	0.100467354
32	0x3dea3143	0.11435177
33	0x3b8b097c	0.004243074
34	0x3da3059e	0.07960056
35	0xbe783e38	-0.24242485
36	0xbe09c764	-0.13454968
37	0xbdca8c72	-0.09890069
38	0x3e698574	0.22804815
39	0x3ce69398	0.02814655
40	0xbe45e294	-0.19324714
41	0x3e772bfa	0.2413787
42	0xbd17433b	-0.03692935
43	0xbe577d56	-0.21043906
44	0xbdc5d3a4	-0.09659508
45	0x3e56ab2e	0.20963737
46	0xbe3a49ae	-0.18192169
47	0x3db31aa8	0.08745319
48	0x3e51a087	0.20471393
49	0x3db904ee	0.090341434
50	0x3e4d530c	0.20051211
51	0x3e48aac0	0.19596386
52	0x3e257da2	0.16161206
53	0xbd132e92	-0.035933085
54	0xbd55edc0	-0.05222869
55	0x3c866aaf	0.016408293
56	0x3e47a5e4	0.19496876
57	0xbe2b6920	-0.16739321
58	0x3e6374a2	0.2221246
59	0x3d5b3a8c	0.05352263
60	0xbe590132	-0.21191862
61	0xbdfcc5e2	-0.12342431
62	0xbccaea5d	-0.024769956
63	0x3e6244c0	0.22096539

Net3.fc_list.1.bias f4 [4]
0	0x3dd9ef75	0.10641376
1	0xbe118824	-0.1421209
2	0xbe16bc0d	-0.14720173
3	0x3dde1759	0.10844297
