3. model/model3.pt (torch, 6879 bytes, 4 tensors)

fc_list.0.weight f4 [64, 16]
0	0x3e614858	0.22000253
1	0xbe1f3b3c	-0.1554994
2	0xbd86abc2	-0.06575729
3	0x3c53548f	0.012898578
4	0xbe82666a	-0.2546876
5	0x3e461264	0.19342953
6	0xbc347d56	-0.011016211
7	0xbbfb5ae9	-0.0076707494
8	0xbe109b95	-0.1412185
9	0xbe56432e	-0.20924065
10	0x3bb4bceb	0.005515685
11	0x3def4def	0.116847865
12	0x3e6a3f42	0.22875693
13	0x3df6d4c3	0.120523
14	0x3e11d66b	0.1424195
15	0xbe05db09	-0.13071837
16	0x3dd04dac	0.10171065
17	0x3dfb1b48	0.12261063
18	0x3dc3014c	0.09521732
19	0xbc822670	-0.015887469
20	0xbd833344	-0.064062625
21	0x3e5a4f70	0.21319366
22	0xbdbf4d78	-0.09340948
23	0xbe26ab38	-0.16276252
24	0x3d848e44	0.064724475
25	0xbdeefa2c	-0.1166881
26	0xbdc7c99c	-0.09755251
27	0xbc9fec30	-0.019521803
28	0xbe3b4242	-0.18286994
29	0xbd51ec48	-0.051250726
30	0xbd584e00	-0.05280876
31	0xbe299612	-0.16561154
32	0x3df4f9e0	0.119617224
33	0x3ae00000	0.0017089844
34	0x3d2f4d38	0.04279825
35	0xbe41d34c	-0.1892826
36	0x3b1a0c00	0.0023505688
37	0xbe03a89c	-0.12857288
38	0x3e16710a	0.14691558
39	0x3e3da0d6	0.18518385
40	0xbd24c510	-0.040226996
41	0xbdbb8020	-0.09155297
42	0xbd0ba6b0	-0.034094512
43	0xbe01a326	-0.12659892
44	0x3e0a4cf0	0.13505912
45	0xbe54cc7c	-0.2078113
46	0xbe009ff0	-0.12561011
47	0xbe62f300	-0.2216301
48	0x3e12e2a5	0.1434427
49	0xbe855956	-0.2604472
50	0x3e4fc59f	0.2029023
51	0xbe4cbd15	-0.19994004
52	0xbd6296f8	-0.055319756
53	0xbe3d1ee7	-0.1846882
54	0x3e1cf0b9	0.15326203
55	0x3dd39e45	0.10332922
56	0x3df79a13	0.12089934
57	0xbd82200d	-0.063537695
58	0xbe2e6715	-0.1703151
59	0xbd86a4a9	-0.06574375
60	0xbdb35a23	-0.087574266
61	0xbdcf4302	-0.101202026
62	0xbe0040ce	-0.12524721
63	0x3e4a2f20	0.1974454
64	0xbd04ead9	-0.03245053
65	0x3c8f70dc	0.01750987
66	0xbd5aea0f	-0.053445872
67	0xbe0b909b	-0.13629381
68	0xbc6dcd85	-0.014514332
69	0xbe06eb47	-0.13175689
70	0xbe5b4486	-0.21412858
71	0xbe22adb0	-0.15886569
72	0x3e423049	0.18963732
73	0xbdc3f4fb	-0.09568211
74	0xbd7e976a	-0.06215612
75	0x3e6c747b	0.23091309
76	0xbe56ec18	-0.209885
77	0xbc1dd2d8	-0.009632789
78	0x3dbb088f	0.09132492
79	0xbc23bfa4	-0.009994421
80	0x3dd301b0	0.10303056
81	0xbe05c92d	-0.13065024
82	0xbe2ad9cc	-0.16684645
83	0x3e111b88	0.14170659
84	0x3cfc8cf2	0.030828927
85	0x3dd66f12	0.10470404
86	0xbda06c7c	-0.07833192
87	0x3e177416	0.14790377
88	0xbe6e5f7b	-0.2327861
89	0x3c10aa21	0.008829624
90	0x3e840a97	0.2578933
91	0xbe38a794	-0.18032676
92	0x3e6b39e8	0.22971308
93	0x3e86f6b1	0.26360086
94	0xbd247437	-0.040149894
95	0x3db51d34	0.08843461
96	0xbe73387f	-0.2375202
97	0xbdf8a7f8	-0.121414125
98	0x3e511dd5	0.20421536
99	0x3ddc590e	0.10759173
100	0xbdd5c4eb	-0.1043795
101	0xbe78aac1	-0.24283887
102	0xbcbfeacd	-0.023427391
103	0xbd8633ae	-0.06552826
104	0xbe666a65	-0.22501524
105	0x3d936ef9	0.07198901
106	0xbe0c132b	-0.13679187
107	0xbda25763	-0.07926824
108	0x3d301248	0.042986184
109	0xbdfd4c04	-0.123680145
110	0x3dd70160	0.10498309
111	0xbc6c1ae3	-0.014410707
112	0x3e02f8eb	0.12790267
113	0xbbadbb7e	-0.005301892
114	0x3d52b788	0.05144456
115	0x3db35a63	0.08757474
116	0x3e536904	0.20645529
117	0xbe4f9baa	-0.20274225
118	0xbdf691e7	-0.120395474
119	0x3e35359d	0.17696233
120	0x3e156b10	0.14591622
121	0xbe4e69b3	-0.20157509
122	0xbe83c7d4	-0.25738394
123	0xbe6f3ab8	-0.23362243
124	0x3cefd9e3	0.029278701
125	0xbe6ed4f9	-0.2332343
126	0x3de63a0f	0.112415425
127	0x3e0c14d4	0.1367982
128	0xbd512471	-0.051060144
129	0xbe52ca37	-0.20584951
130	0x3d84e203	0.06488421
131	0x3d8ea409	0.06964881
132	0x3e5b283b	0.21402065
133	0xbe883191	-0.26600316
134	0x3d9a06e8	0.075208485
135	0xbe26c5e1	-0.16286422
136	0xbe8548b0	-0.2603202
137	0x3dd56279	0.10419173
138	0x3dd413f9	0.10355372
139	0xbdb32bbc	-0.08748576
140	0x3d4ce1db	0.05002008
141	0xbe7d7b11	-0.24753977
142	0x3d365472	0.044514127
143	0xbc479ce5	-0.012183403
144	0xbdc28397	-0.09497755
145	0xbe1c465e	-0.15261218
146	0x3e043fb6	0.12914929
147	0x3e449ff3	0.19201641
148	0xbe4e17da	-0.20126286
149	0xbe64edf0	-0.22356391
150	0x3dd16744	0.102247745
151	0xbdb672d6	-0.08908622
152	0x3c157d53	0.009124118
153	0xbdbf973b	-0.09355017
154	0xbe95aaef	-0.29231974
155	0xbe369997	-0.17832027
156	0x3da670b9	0.08126969
157	0xbe8016cd	-0.25017396
158	0x3d83a901	0.06428719
159	0x3e4907d3	0.19631891
160	0xbe4c23c2	-0.19935516
161	0x392b7000	0.00016349554
162	0x3d858e94	0.06521335
163	0x3d4b9fe0	0.049713016
164	0x3e4f98f2	0.20273188
165	0xbdd6f388	-0.10495669
166	0x3e5d78de	0.21628138
167	0xbe5ef846	-0.21774396
168	0xbce64ed0	-0.028113753
169	0x3e484f6c	0.19561547
170	0x3b71be00	0.003688693
171	0xbe12fd4a	-0.14354435
172	0x3e1e0d7e	0.15434834
173	0x3e38d554	0.18050128
174	0x3e66e5b8	0.22548568
175	0xbe5e4014	-0.21704131
176	0xbcc49d01	-0.024000647
177	0x3e0861ff	0.13318633
178	0xbdd9b27d	-0.10629747
179	0x3dc67573	0.096903704
180	0xbe794a33	-0.24344711
181	0x3e29946e	0.16560528
182	0x3e50b754	0.20382434
183	0xbe86e354	-0.26345313
184	0x3df9dcf4	0.122003466
185	0xbe8f7271	-0.28017
186	0xbc1ec86e	-0.009691341
187	0x3df8cf45	0.121489085
188	0x3e0b4abb	0.13602726
189	0xbe6cbf58	-0.23119867
190	0xbd8eb0d8	-0.06967324
191	0x3dddce5b	0.10830375
192	0xbe31ccef	-0.17363332
193	0xbe33fe87	-0.17577563
194	0xbd7501c1	-0.059816126
195	0xbda42bb9	-0.08016152
196	0xbdf737e4	-0.12071207
197	0x3dd7c9a7	0.10536509
198	0xbd948bd2	-0.07253231
199	0x3e676b68	0.22599566
200	0xbc4d499b	-0.012529756
201	0x3e44e867	0.1922928
202	0xbdc292c3	-0.09500649
203	0x3b0280b2	0.0019913134
204	0x3a8734d5	0.0010315428
205	0x3e7f775d	0.24947877
206	0xbd9d1ee5	-0.07671908
207	0x3e6f96ae	0.23397323
208	0x3e2d6bca	0.1693565
209	0x3cbd8990	0.023136884
210	0xbe346ef6	-0.17620453
211	0x3d4dd500	0.05025196
212	0x3e495552	0.19661453
213	0x3e492230	0.19641948
214	0x3cc99950	0.024609238
215	0xbe5df8ce	-0.21676943
216	0xbdd2657c	-0.10273263
217	0xbd84adb4	-0.06478444
218	0x3e4c8d52	0.19975784
219	0xbe6a91ea	-0.22907224
220	0x3d975850	0.07389891
221	0x3da80adc	0.08205196
222	0xbe199cc4	-0.15001208
223	0xbdcb1798	-0.099166095
224	0xbd2bf4bf	-0.041981455
225	0x3e669a55	0.2251981
226	0x3cd79756	0.02631728
227	0x3e5c42ee	0.21509907
228	0xbd8ff6ed	-0.07029519
229	0xbdad8535	-0.08472673
230	0x3e61a35f	0.22034977
231	0x3d9edd20	0.0775702
232	0xbd9a7333	-0.07541504
233	0xbc87b01b	-0.016563466
234	0xbe06ec74	-0.13176137
235	0xbe5b3f44	-0.21410853
236	0x3da65980	0.081225395
237	0xbd4b0bed	-0.04957192
238	0xbdfd1b9a	-0.1235878
239	0x3db54ee4	0.08852938
240	0x3d982804	0.074295074
241	0xbe49596c	-0.19663018
242	0x3e133700	0.1437645
243	0x3e73b42c	0.23799199
244	0x3d0b7478	0.03404662
245	0xbe58b386	-0.21162233
246	0xbe4d6c6e	-0.20060894
247	0xbb839000	-0.004014969
248	0xbe141c3e	-0.14463899
249	0x3c8478d0	0.01617089
250	0x3c84dda0	0.01621896
251	0x3e6f8cb4	0.23393518
252	0xbde8b588	-0.11362749
253	0xbe14f534	-0.14546663
254	0xbd67b500	-0.0565691
255	0xbe0ffd26	-0.14061412

fc_list.0.bias f4 [64]
0	0xbd233012	-0.039840765
1	0x3cfccd60	0.03085965
2	0xbc0c9080	-0.008579373
3	0x3c8f62cb	0.017503163
4	0x3de7686b	0.11299213
5	0xbe442743	-0.19155602
6	0x3de33c3d	0.11095474
7	0x3e751daf	0.23937105
8	0x3dd7aea7	0.10531359
9	0xbda50dbc	-0.0805926
10	0x3e14f9ce	0.14548418
11	0x3e2f8c00	0.1714325
12	0x3e370f69	0.17876972
13	0xbe4a7864	-0.19772488
14	0x3d6d6d75	0.057965714
15	0x3d978e08	0.07400137
16	0xbd0596d1	-0.032614533
17	0x3c88d1e0	0.016701639
18	0x3bec3822	0.00720884
19	0xbdb4f298	-0.088353336
20	0x3d839436	0.06424753
21	0x3e16fec0	0.14745617
22	0x3dea9b78	0.114554346
23	0xbe4aa648	-0.19789994
24	0x3e4aa7f4	0.19790632
25	0xbd86c86c	-0.06581196
26	0xbdef3af2	-0.11681165
27	0x3cb6ab70	0.022298545
28	0xbe3c02ee	-0.18360493
29	0x3e186330	0.14881587
30	0x3d708888	0.058723956
31	0xbe28b306	-0.16474542
32	0xbe0a0628	-0.13478911
33	0xbe73cf1d	-0.23809476
34	0x3da0eb10	0.078573346
35	0xbe1dae6c	-0.15398568
36	0xb9425916	-0.00018534469
37	0x3e39da77	0.18149744
38	0x3c22b9ba	0.009931976
39	0xbe84717c	-0.25867832
40	0xbc97b620	-0.018519461
41	0x3e2488c6	0.160678
42	0x3d90ae40	0.070644855
43	0x3def18bd	0.1167464
44	0x3ddd53ed	0.10807023
45	0xbd15e430	-0.03659457
46	0x3cd6bf6c	0.026214324
47	0xbdd665fc	-0.10468671
48	0xbd90abf8	-0.070640504
49	0xbe581f9f	-0.21105812
50	0xbe34a49a	-0.17640916
51	0x3e5c17f2	0.2149351
52	0x3e187592	0.148886
53	0x3e0b4cc2	0.136035
54	0x3d6f0350	0.05835277
55	0xbe3d053d	-0.1845903
56	0x3dc1b034	0.09457436
57	0x3d002e7c	0.03129433
58	0x3e4f8b06	0.20267877
59	0xbe2678ee	-0.16257069
60	0x3e31bea3	0.17357878
61	0xbe72a618	-0.23696172
62	0x3e37cf24	0.17950112
63	0xbd94bcec	-0.072625965

fc_list.1.weight f4 [4, 64]
0	0x3d0b2aaf	0.033976253
1	0xbd08462c	-0.033270046
2	0xbca38998	-0.01996307
3	0x3d6cef5e	0.057845466
4	0xbc893df9	-0.016753184
5	0xbb2eaff8	-0.0026655179
6	0xbdbfae92	-0.093594685
7	0xbda99116	-0.08279626
8	0xbca2d535	-0.019877056
9	0xbd691239	-0.056902144
10	0xbc5ce1f0	-0.013481602
11	0xbda003e6	-0.078132436
12	0x3e1b3312	0.151562
13	0xbdcd3328	-0.10019523
14	0x3d1ffc40	0.039058924
15	0xbdfa7356	-0.1222903
16	0x3b19e3e1	0.0023481774
17	0xbdaf78b2	-0.08567943
18	0xbd84977b	-0.06474205
19	0xbd3f2008	-0.046661407
20	0x3e00f0a6	0.125918
21	0x3d4589b8	0.048227042
22	0xbd73a340	-0.05948186
23	0x3d067008	0.032821685
24	0x3d64c704	0.05585386
25	0xbda4b5ee	-0.08042513
26	0xbd992eba	-0.074796155
27	0xbc2a9730	-0.0104120225
28	0xbbe67920	-0.007033482
29	0xbd70c60f	-0.058782633
30	0xbd83ca2c	-0.064350456
31	0xbdef7a54	-0.11693254
32	0x3d7d0cfa	0.061779954
33	0xbd833b3b	-0.06407782
34	0xbd07473c	-0.03302692
35	0xbd9f4c3e	-0.07778214
36	0xbda2a2c5	-0.07941202
37	0xbd229f16	-0.039702497
38	0x3b31d7a9	0.00271366
39	0x3e10780b	0.14108293
40	0x3d782294	0.06057985
41	0x3dea152c	0.114298195
42	0x3dbf7244	0.09347966
43	0x3d4ee492	0.05051095
44	0x3d814137	0.06311267
45	0x3d699cc4	0.05703427
46	0xbd88fafc	-0.066884965
47	0x3d10ef30	0.035384357
48	0xbcd3ae80	-0.025840044
49	0xbd2fc05d	-0.04290806
50	0xbde674ac	-0.11252722
51	0xbd966076	-0.07342617
52	0xbcce21f8	-0.025162682
53	0xbdb78496	-0.08960836
54	0x3bca8b60	0.0061811656
55	0xbbca7937	-0.0061790007
56	0x3d784508	0.06061271
57	0xbda00021	-0.078125246
58	0x3da36a07	0.079792075
59	0xbd99a210	-0.07501614
60	0xbdb31e61	-0.08746029
61	0x3ded5ea6	0.115903184
62	0xbd9fc81d	-0.078018405
63	0xbdac89c2	-0.08424713
64	0x3de8428c	0.11340818
65	0xbce78718	-0.02826266
66	0xbdb5a8dc	-0.08870098
67	0xbd8b3737	-0.06797641
68	0x3deb0d7b	0.114771806
69	0xbc17a523	-0.00925568
70	0xbdb4e95f	-0.088335745
71	0x3e038043	0.12841897
72	0xbda0fc17	-0.07860582
73	0xbd1bd175	-0.03804155
74	0xbd8b88d6	-0.06813209
75	0xbdd22279	-0.102604814
76	0x3db76e3b	0.08956572
77	0x3d6519b0	0.0559327
78	0x3dce8d9b	0.10085603
79	0xbd41c2dc	-0.047304973
80	0x3e3373a6	0.17524585
81	0x3c318670	0.010835275
82	0x3d9b62a5	0.07587174
83	0xbc28d7d0	-0.01030536
84	0x3d05b405	0.032642383
85	0xbc812000	-0.01576233
86	0xbd9f7e6c	-0.07787785
87	0x3ce93660	0.02846831
88	0xbddfec2c	-0.10933718
89	0x3d9034aa	0.07041295
90	0x3d1317e4	0.035911456
91	0xbd6adb10	-0.05733782
92	0x3d9208d4	0.0713059
93	0x3d571ca4	0.05251755
94	0x3dc36ffe	0.09542845
95	0x3b912f40	0.0044306815
96	0xbdc03dc3	-0.0938678
97	0xbd7a42a7	-0.06109872
98	0x3c468350	0.012116268
99	0x3de5bf48	0.11218125
100	0xbc82f570	-0.015986174
101	0x3e09912b	0.13434283
102	0xbc8980e7	-0.016785098
103	0xbd9ad3e4	-0.07559946
104	0x3dba29e2	0.0909002
105	0x3a636793	0.00086747966
106	0x3d50ec58	0.051006645
107	0xbda3ca29	-0.07997543
108	0xbc2c7fae	-0.010528488
109	0x3dbb591a	0.09147854
110	0xbdaf267d	-0.08552263
111	0xbd76f920	-0.060296178
112	0xbd328e18	-0.043592542
113	0xbb8f4c4b	-0.0043731085
114	0xbd0b46d8	-0.03400311
115	0xbdaf8f8a	-0.085723
116	0xbb140d00	-0.0022590756
117	0xbd133c40	-0.03594613
118	0xbd6dcaf4	-0.05805488
119	0x3c8f4a5c	0.017491512
120	0x3d3f9eac	0.04678218
121	0xbcd07506	-0.025446426
122	0x3e0ae441	0.13563634
123	0xbd8eaeac	-0.0696691
124	0xbd9468ec	-0.07246575
125	0x3cc5aea8	0.024131134
126	0x3dfeb0d8	0.12436074
127	0xbdec0888	-0.11525065
128	0xbdb238a7	-0.08702212
129	0x3da84174	0.08215609
130	0xbddee76e	-0.108839855
131	0x3d83bd40	0.06432581
132	0x3d50cc60	0.050976157
133	0xbcfc0765	-0.030765245
134	0xbdc1f351	-0.09470237
135	0xbdc4ad5f	-0.096033804
136	0x3d6a4e5e	0.057203643
137	0x3d9652b8	0.07339996
138	0xbd3ba9bc	-0.04581617
139	0xbd1909f4	-0.037363008
140	0x3cdfbeed	0.02731272
141	0x3d20be30	0.039243877
142	0x3ac34b9e	0.0014899855
143	0x3dca2546	0.098703906
144	0x3e0b947f	0.13630866
145	0x3dd6d8a2	0.10490538
146	0x3d6a4c49	0.057201657
147	0x3d9bf526	0.07615118
148	0x3d72a46f	0.059238847
149	0xbdfa957c	-0.12235543
150	0x3dd1f1c8	0.10251194
151	0xbd70e6ac	-0.058813736
152	0x3bef9a60	0.007312104
153	0x3d0973c1	0.033557657
154	0x3d98198e	0.07426749
155	0xbdb2bc1a	-0.08727284
156	0x3dc75386	0.09732728
157	0x3c4b8b19	0.0124233
158	0x3dd942d6	0.10608451
159	0xbd31ae9c	-0.04337941
160	0xbb617de2	-0.0034407307
161	0x3d1ebd80	0.03875494
162	0xbd995102	-0.07486154
163	0xbd31d1c8	-0.043412954
164	0xbe01bef0	-0.12670493
165	0xbd5919e0	-0.053003192
166	0xbe013acf	-0.1262009
167	0x3db4da39	0.08830685
168	0xbad90200	-0.0016556382
169	0x3c2b608b	0.010460029
170	0xbd31b54c	-0.04338579
171	0xbdcd25ef	-0.10017001
172	0x3dc1a594	0.0945541
173	0xbd83e7f8	-0.06440729
174	0x3db89fe9	0.090148754
175	0xbc39be70	-0.011336908
176	0x3d97affc	0.07406613
177	0xbd11d8c3	-0.03560711
178	0x3d5a20a8	0.0532538
179	0xbd9cdaba	-0.07658906
180	0xbdf24f82	-0.11831571
181	0x3de928da	0.11384745
182	0xbd5dcf18	-0.054152578
183	0xbcbae0ed	-0.022812331
184	0xbdff09fe	-0.12453078
185	0xbddd234c	-0.10797748
186	0x3d8b9932	0.06816329
187	0xbc945760	-0.01810807
188	0xbd653da7	-0.055967
189	0x3db25786	0.087081
190	0x3ca61ae6	0.020276498
191	0xbd72e080	-0.05929613
192	0xbcf394f1	-0.029734107
193	0x3cc87d10	0.024473697
194	0x3d75ebc0	0.06003928
195	0x3d4dba8f	0.050226744
196	0x3d3bfd3f	0.04589581
197	0xbce4e849	-0.027942793
198	0xbccf4f58	-0.025306389
199	0x3b43fbdd	0.002990476
200	0xbd1a8d3b	-0.037732344
201	0x3d8c5ad7	0.06853264
202	0x3df9d278	0.12198347
203	0x3cc845c6	0.024447333
204	0xbd4df06a	-0.050278105
205	0xbdf05226	-0.117344186
206	0x3dd0356d	0.1016644
207	0x3d9751b4	0.073886305
208	0xbdba1f63	-0.09088018
209	0x3b022440	0.0019858032
210	0xbe01eb5c	-0.12687439
211	0xbc3b9c90	-0.011450902
212	0x3d88b4ab	0.06675085
213	0x3d26d1f8	0.040727586
214	0xbde29f72	-0.11065568
215	0xbdf9032e	-0.121588096
216	0xbd8ede7a	-0.06976028
217	0xbdd59531	-0.10428847
218	0x3d4005cd	0.046880532
219	0x3dbab958	0.09117383
220	0x3d96da98	0.07365912
221	0xba5bb4f0	-0.0008381149
222	0xbdddf032	-0.10836829
223	0x3d9ee6c4	0.07758859
224	0xbd010cbe	-0.031506293
225	0xbc44bf18	-0.012008451
226	0x3dafd77c	0.08586022
227	0xbd4f2fd0	-0.050582707
228	0x3d292f29	0.04130474
229	0x3d96733d	0.07346199
230	0xbdff5803	-0.12467959
231	0x3d99568c	0.07487211
232	0x3d096554	0.0335439
233	0x3dd78fb4	0.10525456
234	0x3c950d68	0.01819487
235	0x3b63a75f	0.0034737212
236	0xbc38ce44	-0.011279646
237	0x3bee0740	0.007264048
238	0xbc1b3073	-0.009472
239	0x3c995200	0.018715858
240	0x3dd274e8	0.10276204
241	0x3da2e1db	0.07953235
242	0xbc262610	-0.010140911
243	0xbdbc5f2c	-0.0919784
244	0xbdf24c34	-0.11830941
245	0xbd82fee6	-0.06396274
246	0x3dc59e72	0.09649362
247	0xbd687cfe	-0.056759827
248	0xbc67e2d0	-0.014153197
249	0xbc270347	-0.0101936525
250	0x3d5d8647	0.054083135
251	0x3de7b74e	0.113142595
252	0xbc2e35d7	-0.010632954
253	0xbd26f330	-0.040759265
254	0xbdfcc06b	-0.12341388
255	0xbdca15fe	-0.09867476

fc_list.1.bias f4 [4]
0	0x3df5bb4e	0.11998616
1	0x3de8c114	0.11364952
2	0x3acd62f4	0.0015669749
3	0x3c2dbf09	0.010604628
